…
&lt;div class=&quot;language-python highlighter-rouge&quot;&gt;&lt;div class=&quot;highlight&quot;&gt;&lt;pre class=&quot;highlight&quot;&gt;&lt;code&gt;&lt;span class=&quot;n&quot;&gt;model&lt;/span&gt;&lt;span class=&quot;o&quot;&gt;.&lt;/span&gt;&lt;span class=&quot;n&quot;&gt;summary&lt;/span&gt;&lt;span class=&quot;p&quot;&gt;()&lt;/span&gt;
&lt;/code&gt;&lt;/pre&gt;&lt;/div&gt;&lt;/div&gt;

&lt;div class=&quot;highlighter-rouge&quot;&gt;&lt;div class=&quot;highlight&quot;&gt;&lt;pre class=&quot;highlight&quot;&gt;&lt;code&gt;Model: &quot;sequential_1&quot;
_________________________________________________________________
Layer (type)                 Output Shape              Param #   
=================================================================
conv2d_6 (Conv2D)            (None, 254, 254, 16)      448       
_________________________________________________________________
max_pooling2d_6 (MaxPooling2 (None, 127, 127, 16)      0         
_________________________________________________________________
conv2d_7 (Conv2D)            (None, 125, 125, 32)      4640      
_________________________________________________________________
max_pooling2d_7 (MaxPooling2 (None, 62, 62, 32)        0         
_________________________________________________________________
conv2d_8 (Conv2D)            (None, 60, 60, 64)        18496     
_________________________________________________________________
max_pooling2d_8 (MaxPooling2 (None, 30, 30, 64)        0         
_________________________________________________________________
conv2d_9 (Conv2D)            (None, 28, 28, 128)       73856     
_________________________________________________________________
max_pooling2d_9 (MaxPooling2 (None, 14, 14, 128)       0         
_________________________________________________________________
conv2d_10 (Conv2D)           (None, 12, 12, 256)       295168    
_________________________________________________________________
max_pooling2d_10 (MaxPooling (None, 6, 6, 256)         0         
_________________________________________________________________
conv2d_11 (Conv2D)           (None, 4, 4, 512)         1180160   
_________________________________________________________________
max_pooling2d_11 (MaxPooling (None, 2, 2, 512)         0         
_________________________________________________________________
global_average_pooling2d_1 ( (None, 512)               0         
_________________________________________________________________
dense_1 (Dense)              (None, 2)                 1026      
=================================================================
Total params: 1,573,794
Trainable params: 1,573,794
Non-trainable params: 0
_________________________________________________________________
&lt;/code&gt;&lt;/pre&gt;&lt;/div&gt;&lt;/div&gt;

&lt;hr /&gt;
&lt;p&gt;&lt;br /&gt;&lt;/p&gt;

&lt;h2 id=&quot;전이학습transfer-learning&quot;&gt;&lt;font color=&quot;blue&quot;&gt;전이학습(Transfer Learning)&lt;/font&gt;&lt;/h2&gt;
…
