…
&lt;span class=&quot;c&quot;&gt;# val_loss = 0.1921 &lt;/span&gt;
&lt;/code&gt;&lt;/pre&gt;&lt;/div&gt;&lt;/div&gt;

&lt;div class=&quot;highlighter-rouge&quot;&gt;&lt;div class=&quot;highlight&quot;&gt;&lt;pre class=&quot;highlight&quot;&gt;&lt;code&gt;Model: &quot;functional_5&quot;
__________________________________________________________________________________________________
Layer (type)                    Output Shape         Param #     Connected to                     
==================================================================================================
input_3 (InputLayer)            [(None, 128, 128, 1) 0                                            
__________________________________________________________________________________________________
conv2d_20 (Conv2D)              (None, 128, 128, 8)  80          input_3[0][0]                    
__________________________________________________________________________________________________
conv2d_21 (Conv2D)              (None, 128, 128, 8)  584         conv2d_20[0][0]                  
__________________________________________________________________________________________________
max_pooling2d_4 (MaxPooling2D)  (None, 64, 64, 8)    0           conv2d_21[0][0]                  
__________________________________________________________________________________________________
conv2d_22 (Conv2D)              (None, 64, 64, 16)   1168        max_pooling2d_4[0][0]            
__________________________________________________________________________________________________
conv2d_23 (Conv2D)              (None, 64, 64, 16)   2320        conv2d_22[0][0]                  
__________________________________________________________________________________________________
max_pooling2d_5 (MaxPooling2D)  (None, 32, 32, 16)   0           conv2d_23[0][0]                  
__________________________________________________________________________________________________
conv2d_24 (Conv2D)              (None, 32, 32, 32)   4640        max_pooling2d_5[0][0]            
__________________________________________________________________________________________________
conv2d_25 (Conv2D)              (None, 32, 32, 32)   9248        conv2d_24[0][0]                  
__________________________________________________________________________________________________
max_pooling2d_6 (MaxPooling2D)  (None, 16, 16, 32)   0           conv2d_25[0][0]                  
__________________________________________________________________________________________________
conv2d_26 (Conv2D)              (None, 16, 16, 64)   18496       max_pooling2d_6[0][0]            
__________________________________________________________________________________________________
conv2d_27 (Conv2D)              (None, 16, 16, 64)   36928       conv2d_26[0][0]                  
__________________________________________________________________________________________________
max_pooling2d_7 (MaxPooling2D)  (None, 8, 8, 64)     0           conv2d_27[0][0]                  
__________________________________________________________________________________________________
conv2d_28 (Conv2D)              (None, 8, 8, 128)    73856       max_pooling2d_7[0][0]            
__________________________________________________________________________________________________
conv2d_transpose_4 (Conv2DTrans (None, 16, 16, 64)   73792       conv2d_28[0][0]                  
__________________________________________________________________________________________________
concatenate_4 (Concatenate)     (None, 16, 16, 128)  0           conv2d_transpose_4[0][0]         
                                                                 conv2d_27[0][0]                  
__________________________________________________________________________________________________
conv2d_29 (Conv2D)              (None, 16, 16, 64)   73792       concatenate_4[0][0]              
__________________________________________________________________________________________________
conv2d_30 (Conv2D)              (None, 16, 16, 64)   36928       conv2d_29[0][0]                  
__________________________________________________________________________________________________
conv2d_transpose_5 (Conv2DTrans (None, 32, 32, 32)   18464       conv2d_30[0][0]                  
__________________________________________________________________________________________________
concatenate_5 (Concatenate)     (None, 32, 32, 64)   0           conv2d_transpose_5[0][0]         
                                                                 conv2d_25[0][0]                  
__________________________________________________________________________________________________
conv2d_31 (Conv2D)              (None, 32, 32, 32)   18464       concatenate_5[0][0]              
__________________________________________________________________________________________________
conv2d_32 (Conv2D)              (None, 32, 32, 32)   9248        conv2d_31[0][0]                  
__________________________________________________________________________________________________
conv2d_transpose_6 (Conv2DTrans (None, 64, 64, 16)   4624        conv2d_32[0][0]                  
__________________________________________________________________________________________________
concatenate_6 (Concatenate)     (None, 64, 64, 32)   0           conv2d_transpose_6[0][0]         
                                                                 conv2d_23[0][0]                  
__________________________________________________________________________________________________
conv2d_33 (Conv2D)              (None, 64, 64, 16)   4624        concatenate_6[0][0]              
__________________________________________________________________________________________________
conv2d_34 (Conv2D)              (None, 64, 64, 16)   2320        conv2d_33[0][0]                  
__________________________________________________________________________________________________
conv2d_transpose_7 (Conv2DTrans (None, 128, 128, 8)  1160        conv2d_34[0][0]                  
__________________________________________________________________________________________________
concatenate_7 (Concatenate)     (None, 128, 128, 16) 0           conv2d_transpose_7[0][0]         
                                                                 conv2d_21[0][0]                  
__________________________________________________________________________________________________
conv2d_35 (Conv2D)              (None, 128, 128, 8)  1160        concatenate_7[0][0]              
__________________________________________________________________________________________________
conv2d_36 (Conv2D)              (None, 128, 128, 8)  584         conv2d_35[0][0]                  
__________________________________________________________________________________________________
conv2d_37 (Conv2D)              (None, 128, 128, 1)  9           conv2d_36[0][0]                  
==================================================================================================
Total params: 392,489
Trainable params: 392,489
Non-trainable params: 0
__________________________________________________________________________________________________
&lt;/code&gt;&lt;/pre&gt;&lt;/div&gt;&lt;/div&gt;

&lt;hr /&gt;

&lt;div class=&quot;
…
