…
ss: 0.2515 - acc: 0.8939 - val_loss: 0.2577 - val_acc: 0.8920Epoch 9/10625/625 [==============================] - 93s 149ms/step - loss: 0.2362 - acc: 0.9018 - val_loss: 0.2665 - val_acc: 0.8920Epoch 10/10625/625 [==============================] - 94s 150ms/step - loss: 0.2168 - acc: 0.9097 - val_loss: 0.2565 - val_acc: 0.8932  모델 Summarymodel.summary()Model: "sequential_1"_________________________________________________________________Layer (type)                 Output Shape              Param #   =================================================================conv2d_6 (Conv2D)            (None, 254, 254, 16)      448       _________________________________________________________________max_pooling2d_6 (MaxPooling2 (None, 127, 127, 16)      0         _________________________________________________________________conv2d_7 (Conv2D)            (None, 125, 125, 32)      4640      _________________________________________________________________max_pooling2d_7 (MaxPooling2 (None, 62, 62, 32)        0         _________________________________________________________________conv2d_8 (Conv2D)            (None, 60, 60, 64)        18496     _________________________________________________________________max_pooling2d_8 (MaxPooling2 (None, 30, 30, 64)        0         _________________________________________________________________conv2d_9 (Conv2D)            (None, 28, 28, 128)       73856     _________________________________________________________________max_pooling2d_9 (MaxPooling2 (None, 14, 14, 128)       0         _________________________________________________________________conv2d_10 (Conv2D)           (None, 12, 12, 256)       295168    _________________________________________________________________max_pooling2d_10 (MaxPooling (None, 6, 6, 256)         0         _________________________________________________________________conv2d_11 (Conv2D)           (None, 4, 4, 512)         1180160   _________________________________________________________________max_pooling2d_11 (MaxPooling (None, 2, 2, 512)         0         _________________________________________________________________global_average_pooling2d_1 ( (None, 512)               0         _________________________________________________________________dense_1 (Dense)              (None, 2)                 1026      =================================================================Total params: 1,573,794Trainable params: 1,573,794Non-trainable params: 0_________________________________________________________________전이학습(Transfer Learning)Imagenet 등의 빅데이터로 학습된 모델을 가져와 쓰기Pretrained Model : EfficientNet      작년에 나온 모델로, 이미지 분류 대회에서 압도적으로 쓰인다. B0 ~ B7까지 버전이 있고, B2 이상으로 갈수록 모델이 많이 무거워진다.    pretrained model 
…
