…
n0]) cc0_up = Conv2D(8, (3,3), activation='relu', padding='same')(cc0) cc0_up = Conv2D(8, (3,3), activation='relu', padding='same')(cc0_up)out = Conv2D(1, (1,1), activation = 'sigmoid')(cc0_up) model = Model(inp, out)model.summary()# val_loss = 0.1921 Model: "functional_5"__________________________________________________________________________________________________Layer (type)                    Output Shape         Param #     Connected to                     ==================================================================================================input_3 (InputLayer)            [(None, 128, 128, 1) 0                                            __________________________________________________________________________________________________conv2d_20 (Conv2D)              (None, 128, 128, 8)  80          input_3[0][0]                    __________________________________________________________________________________________________conv2d_21 (Conv2D)              (None, 128, 128, 8)  584         conv2d_20[0][0]                  __________________________________________________________________________________________________max_pooling2d_4 (MaxPooling2D)  (None, 64, 64, 8)    0           conv2d_21[0][0]                  __________________________________________________________________________________________________conv2d_22 (Conv2D)              (None, 64, 64, 16)   1168        max_pooling2d_4[0][0]            __________________________________________________________________________________________________conv2d_23 (Conv2D)              (None, 64, 64, 16)   2320        conv2d_22[0][0]                  __________________________________________________________________________________________________max_pooling2d_5 (MaxPooling2D)  (None, 32, 32, 16)   0           conv2d_23[0][0]                  __________________________________________________________________________________________________conv2d_24 (Conv2D)              (None, 32, 32, 32)   4640        max_pooling2d_5[0][0]            __________________________________________________________________________________________________conv2d_25 (Conv2D)              (None, 32, 32, 32)   9248        conv2d_24[0][0]                  __________________________________________________________________________________________________max_pooling2d_6 (MaxPooling2D)  (None, 16, 16, 32)   0           conv2d_25[0][0]                  __________________________________________________________________________________________________conv2d_26 (Conv2D)              (None, 16, 16, 64)   18496       max_pooling2d_6[0][0]            __________________________________________________________________________________________________conv2d_27 (Conv2D)              (None, 16, 16, 64)   36928       conv2d_26[0][0]                  __________________________________________________________________________________________________max_pooling2d_7 (MaxPooling2D)  (None, 8, 8, 64)     0           conv2d_27[0][0]                  __________________________________________________________________________________________________conv2d_28 (Conv2D)              (None, 8, 8, 128)    73856       max_pooling2d_7[0][0]            __________________________________________________________________________________________________conv2d_transpose_4 (Conv2DTrans (None, 16, 16, 64)   73792       conv2d_28[0][0]                  __________________________________________________________________________________________________concatenate_4 (Concatenate)     (None, 16, 16, 128)  0           conv2d_transpose_4[0][0]                                                                          conv2d_27[0][0]                  __________________________________________________________________________________________________conv2d_29 (Conv2D)              (None, 16, 16, 64)   73792       concatenate_4[0][0]              __________________________________________________________________________________________________conv2d_30 (Conv2D)              (None, 16, 16, 64)   36928       conv2d_29[0][0]                  __________________________________________________________________________________________________conv2d_transpose_5 (Conv2DTrans (None, 32, 32, 32)   18464       conv2d_30[0][0]                  __________________________________________________________________________________________________concatenate_5 (Concatenate)     (None, 32, 32, 64)   0           conv2d_transpose_5[0][0]                                                                          conv2d_25[0][0]                  __________________________________________________________________________________________________conv2d_31 (Conv2D)              (None, 32, 32, 32)   18464       concatenate_5[0][0]              __________________________________________________________________________________________________conv2d_32 (Conv2D)              (None, 32, 32, 32)   9248        conv2d_31[0][0]                  __________________________________________________________________________________________________conv2d_transpose_6 (Conv2DTrans (None, 64, 64, 16)   4624        conv2d_32[0][0]                  __________________________________________________________________________________________________concatenate_6 (Concatenate)     (None, 64, 64, 32)   0           conv2d_transpose_6[0][0]                                                                          conv2d_23[0][0]                  __________________________________________________________________________________________________conv2d_33 (Conv2D)              (None, 64, 64, 16)   4624        concatenate_6[0][0]              __________________________________________________________________________________________________conv2d_34 (Conv2D)              (None, 64, 64, 16)   2320        conv2d_33[0][0]                  __________________________________________________________________________________________________conv2d_transpose_7 (Conv2DTrans (None, 128, 128, 8)  1160        conv2d_34[0][0]                  __________________________________________________________________________________________________concatenate_7 (Concatenate)     (None, 128, 128, 16) 0           conv2d_transpose_7[0][0]                                                                          conv2d_21[0][0]                  __________________________________________________________________________________________________conv2d_35 (Conv2D)              (None, 128, 128, 8)  1160        concatenate_7[0][0]              __________________________________________________________________________________________________conv2d_36 (Conv2D)              (None, 128, 128, 8)  584         conv2d_35[0][0]                  __________________________________________________________________________________________________conv2d_37 (Conv2D)              (None, 128, 128, 1)  9           conv2d_36[0][0]                  ==================================================================================================Total params: 392,489Trainable params: 392,489Non-trainable params: 0__________________________________________________________________________________________________checkpoint = ModelCheckpoint('best.h5',save_best_only=True,verbose = True)early_stop = Earl
…
ss: 0.2515 - acc: 0.8939 - val_loss: 0.2577 - val_acc: 0.8920Epoch 9/10625/625 [==============================] - 93s 149ms/step - loss: 0.2362 - acc: 0.9018 - val_loss: 0.2665 - val_acc: 0.8920Epoch 10/10625/625 [==============================] - 94s 150ms/step - loss: 0.2168 - acc: 0.9097 - val_loss: 0.2565 - val_acc: 0.8932  모델 Summarymodel.summary()Model: "sequential_1"_________________________________________________________________Layer (type)                 Output Shape              Param #   =================================================================conv2d_6 (Conv2D)            (None, 254, 254, 16)      448       _________________________________________________________________max_pooling2d_6 (MaxPooling2 (None, 127, 127, 16)      0         _________________________________________________________________conv2d_7 (Conv2D)            (None, 125, 125, 32)      4640      _________________________________________________________________max_pooling2d_7 (MaxPooling2 (None, 62, 62, 32)        0         _________________________________________________________________conv2d_8 (Conv2D)            (None, 60, 60, 64)        18496     _________________________________________________________________max_pooling2d_8 (MaxPooling2 (None, 30, 30, 64)        0         _________________________________________________________________conv2d_9 (Conv2D)            (None, 28, 28, 128)       73856     _________________________________________________________________max_pooling2d_9 (MaxPooling2 (None, 14, 14, 128)       0         _________________________________________________________________conv2d_10 (Conv2D)           (None, 12, 12, 256)       295168    _________________________________________________________________max_pooling2d_10 (MaxPooling (None, 6, 6, 256)         0         _________________________________________________________________conv2d_11 (Conv2D)           (None, 4, 4, 512)         1180160   _________________________________________________________________max_pooling2d_11 (MaxPooling (None, 2, 2, 512)         0         _________________________________________________________________global_average_pooling2d_1 ( (None, 512)               0         _________________________________________________________________dense_1 (Dense)              (None, 2)                 1026      =================================================================Total params: 1,573,794Trainable params: 1,573,794Non-trainable params: 0_________________________________________________________________전이학습(Transfer Learning)Imagenet 등의 빅데이터로 학습된 모델을 가져와 쓰기Pretrained Model : EfficientNet      작년에 나온 모델로, 이미지 분류 대회에서 압도적으로 쓰인다. B0 ~ B7까지 버전이 있고, B2 이상으로 갈수록 모델이 많이 무거워진다.    pretrained model 
…
